refs/mouse_xist_repeat_B_6_ref.npy (npy, 70184 bytes, 1 tensors)

array f4 [17514]
-0.031668007 -0.02593872 -0.009884058 -0.03858374 0.015896069 -0.06931475 -0.040863402 -0.053825904
-0.0034248545 -0.04152357 0.014109097 0.0038750411 -0.074983634 0.028512442 0.047863282 -0.04394067
0.010060596 -0.020025805 -0.009592011 -0.04353743 -0.017577862 -0.03868609 -0.005214 0.030678142
0.0651219 0.09545136 -0.021984892 -0.061338533 0.0037098718 0.024088359 -0.0017966606 -0.03322767
-0.0334492 -0.045720752 -0.104217745 -0.07207962 -0.024211472 -0.060628735 -0.06565312 -0.031182276
0.01673442 -0.018599259 -0.029527882 -0.012449243 0.061131265 0.03759774 0.04644243 0.033545926
0.0009100052 0.06586509 0.022204725 -0.03000094 0.0006066408 -0.06177562 -0.04904903 -0.027685653
0.061859973 -0.038034566 -0.022507401 -0.051657613 5.8840982e-05 -0.011870052 -0.027307965 -0.022560509
-0.00044610418 -0.023785062 0.0143923685 -0.0056729545 0.009160165 0.01647681 0.0009828364 0.02082016
0.008114048 -0.038164105 -0.0207279 -0.010885718 -0.020196715 -0.014972427 -0.019552283 -0.026997752
0.041692697 0.031712357 -0.07568722 -0.026553495 0.0041691535 0.0121344095 -0.04332682 0.05475818
0.047823213 -0.0036945085 0.062275972 0.055737965 -0.013931039 0.00653532 -0.023496065 -0.010942726
0.00931864 -0.045334175 -0.0035742607 -0.039407667 -0.025447806 0.0013370147 0.030870771 0.06143278
0.06623263 0.022895657 0.026992545 -0.040410496 -0.04344825 0.027996749 0.0008358042 0.0029321988
0.0070215366 0.02987013 0.034603503 -0.046459317 -0.004806149 0.045105573 0.0037882559 0.09476431
-0.0058774054 0.0758575 0.10854545 0.048599545 -0.016410394 -0.027880596 0.012216478 0.011847461
0.025783354 -0.013507858 -0.02439727 0.0721926 -0.0156279 -0.0021278346 -0.010340557 -0.03907434
-0.00533578 -0.028495388 -0.009764144 -0.039289553 -0.04755353 -0.049069475 -0.045024842 -0.03771302
-0.057289217 -0.070832305 -0.07069462 -0.059304006 -0.06453446 -0.02729392 -0.026359301 -0.036614712
0.0014211534 -0.038218707 -0.038838055 -0.046654508 -0.030512942 0.0019554538 -0.026971454 -0.05396956
-0.04935553 -0.039424103 -0.012300102 -0.016952045 -0.050586294 -0.02349741 -0.0056419247 0.0184767
-0.015041102 -0.052949876 0.045128584 0.041683104 0.007814116 0.06889491 0.022859277 -0.023958178
-0.0069297147 0.005591257 -0.020791944 0.037683733 0.014581924 0.01650362 0.09119445 0.115299135
-0.018666858 0.0005062808 0.01081346 0.0539602 -0.0014028731 0.02734215 0.024205325 0.014308028
-0.02477057 0.010880586 0.0048830854 0.024152592 0.024842264 -0.009297374 -0.02638626 0.0012735309
-0.01536345 0.03113724 -0.019562526 -0.012815164 0.0019734288 0.071190424 0.13464992 0.046285037
0.0017398251 -0.0018355728 -0.029533176 0.00014580136 -0.042821486 0.049655247 0.08754922 0.038753647
0.02114071 -0.02510918 0.04091963 0.017961714 0.023943601 -0.009394082 0.016633103 0.03948756
0.014927852 -0.009325441 0.0047368854 0.0156032285 0.010769098 0.027791686 0.04763532 0.031880945
-0.027862325 0.012052748 0.024939187 -0.0008820036 -0.03458563 0.034065556 0.048209783 0.024010213
0.029016815 -0.018477593 -0.011883427 0.03809711 -0.05706894 0.004667275 0.021927927 -0.008529765
-0.016746718 0.005020761 0.0027107524 -0.037034635 -0.036915693 -0.0042611067 0.018578488 0.018621955
00000000: 50b6 01bd 707d d4bc bef0 21bc fc09 1ebd
00000010: 7938 823c e4f4 8dbd 6260 27bd 8d78 5cbd
00000020: 8673 60bb 9e14 2abd d829 673c 67f4 7d3b
00000030: 0591 99bd ed92 e93c 4a0c 443d 22fb 33bd
00000040: 33d5 243c 280d a4bc cf27 1dbc 4e54 32bd
00000050: 73ff 8fbc 4e75 1ebd 34da aabb ba50 fb3c
00000060: a15e 853d 017c c33d a919 b4bc 1d3e 7bbd
00000070: 5221 733b f354 c53c ed7d ebba bd19 08bd
00000080: 0702 09bd af45 3bbd 1d70 d5bd 7b9e 93bd
00000090: 2357 c6bc d655 78bd 2575 86bd f971 ffbc
000000a0: 9f16 893c 795d 98bc 75e4 f1bc e9f7 4bbc
000000b0: c764 7a3d 1600 1a3d 6b3a 3e3d 7467 093d
000000c0: 6a8d 6e3a 47e4 863d afe6 b53c 88c4 f5bc
000000d0: fa06 1f3a 6f08 7dbd a3e7 48bd 06cd e2bc
000000e0: e260 7d3d 22ca 1bbd 7161 b8bc ef96 53bd
000000f0: 06cc 7638 9b7a 42bc f4b4 dfbc d1d0 b8bc
00000100: 17e3 e9b9 e4d8 c2bc f8cd 6b3c 31e4 b9bb
00000110: 8414 163c 60fa 863c 84d2 803a 0a8f aa3c
00000120: c9f0 043c f751 1cbd 8fcd a9bc 035a 32bc
00000130: 9573 a5bc e94e 75bc 1c2c a0bc 642a ddbc
00000140: f6c5 2a3d d1e4 013d e701 9bbd b786 d9bc
00000150: 659d 883b 67cf 463c 7777 31bd 1d4a 603d
00000160: 46e2 433d 911f 72bb 1715 7f3d 7e4d 643d
00000170: 033f 64bc 3d26 d63b d27a c0bc 1f49 33bc
00000180: 36ad 183c 54b0 39bd 253e 6abb ef69 21bd
00000190: eb77 d0bc c53e af3a b3e4 fc3c f0a0 7b3d
000001a0: f9a4 873d ac8f bb3c 781f dd3c 7a85 25bd
000001b0: cbf6 31bd 7059 e53c df19 5b3a 222a 403b
000001c0: eb14 e63b 34b2 f43c 67bc 0d3d 204c 3ebd
000001d0: e67c 9dbb 9fc0 383d 6344 783b ca13 c23d
000001e0: 4097 c0bb 2d5b 9b3d 144d de3d 5110 473d
000001f0: 176f 86bc d965 e4bc 9f27 483c da1b 423c
00000200: 9d37 d33c 1050 5dbc c9dc c7bc b7d9 933d
00000210: 1506 80bc 2473 0bbb 716b 29bc 6a0c 20bd
00000220: c4d7 aebb 296f e9bc caf9 1fbc 15ee 20bd
00000230: 7ec7 42bd 13fd 48bd f86b 38bd f878 1abd
00000240: 19a8 6abd 8710 91bd 57c8 90bd c2e8 72bd
00000250: a52a 84bd 8097 dfbc 76ef d7bc 4ff9 15bd
00000260: ff45 ba3a 388b 1cbd a714 1fbd cc18 3fbd
00000270: 47f6 f9bc 1227 003b 3df3 dcbc 2f0f 5dbd
00000280: 0629 4abd 2b7b 21bd 5e86 49bc 04df 8abc
00000290: 9333 4fbd a47d c0bc e5df b8bb 735c 973c
000002a0: f46e 76bc f8e1 58bd c0d8 383d e7bb 2a3d
000002b0: c706 003c c618 8d3d 6143 bb3c f143 c4bc
000002c0: a912 e3bb dd36 b73b de53 aabc 425a 1a3d
000002d0: 06e9 6e3c 9a32 873c 28c4 ba3d f421 ec3d
000002e0: 3deb 98bc eeb7 043a f02a 313c 5f05 5d3d
000002f0: 9ce0 b7ba a5fc df3c 3f4a c63c 386c 6a3c
00000300: a7eb cabc 7c44 323c 4a02 a03b a8db c53c
00000310: 0182 cb3c 0354 18bc ff27 d8bc 9bec a63a
00000320: fbb6 7bbc 8613 ff3c 9741 a0bc b2f6 51bc
00000330: a454 013b 49cc 913d abe1 093e 6195 3d3d
00000340: d80a e43a 9a97 f0ba 8fef f1bc 41e2 1839
00000350: 9565 2fbd 4d63 4b3d 014d b33d 25bc 1e3d
00000360: 482f ad3c c4b1 cdbc 589b 273d 7224 933c
00000370: 5f25 c43c a3e9 19bc 2542 883c b5bd 213d
00000380: f393 743c bcc9 18bc e037 9b3b afa4 7f3c
00000390: df70 303c 64ab e33c 411d 433d 9895 023d
000003a0: 883f e4bc e478 453c 444d cc3c 4236 67ba
000003b0: a9a9 0dbd 5388 0b3d 9f77 453d 11b1 c43c
000003c0: acb4 ed3c 525e 97bc b5b2 42bc b70b 1c3d
000003d0: 1fc1 69bd f1ef 983b 32a2 b33c 6dc0 0bbc
000003e0: 6a30 89bc 3285 a43b e1a6 313b a1b1 17bd
000003f0: e934 17bd c1a0 8bbb ea31 983c 128d 983c
