refs/mouse_xist_repeat_B_4_ref.npy (npy, 70184 bytes, 1 tensors)

array f4 [17514]
00000000: e217 44be a559 1abd 4835 efbc 4e53 9ebd
00000010: ea76 44bd 0a59 27be 45e0 12be acac 26be
00000020: 41d9 dabb 5263 bebd bd1e 61bd 52ca a83d
00000030: 6f05 c7be 12ae e23c cf11 d63d d38d 36be
00000040: 3f71 8e3d 2908 1cbe 6a4e 40bc 1ee6 0abe
00000050: f5b6 4cbe 5ff4 aebd 96bd 0a3d 850d 533d
00000060: dda2 1e3e 6679 633e 8161 9a3c d5f2 36be
00000070: 73eb afbd 2e58 383d 6752 2ebd f051 28be
00000080: fff7 2fbd 881b 58be cbf8 81be af4d 48be
00000090: 1720 903c b26b c6bd 3ec2 80be 5cb3 43be
000000a0: b131 ef3d 654a 04be 5c5a 29be 8e24 cfbb
000000b0: 6d82 763e 93a9 ff3d 6f4e b6bb 970a 37bd
000000c0: 00ab c23d 1668 b6bb ed0c e73d 137a ecbd
000000d0: bc05 f2bd b5f9 48be ba80 2dbe 0a13 d5bd
000000e0: e618 363e 0af5 15be d629 0cbd d0c5 4cbe
000000f0: ee71 60bd c2a5 b8bd 7c7a 0dbe 39f2 15be
00000100: cf5d b4bb 9705 28be 626f 003d 8915 c9bd
00000110: 3ac2 dbbd 0e8d 163d a544 39be c692 1fbc
00000120: a025 27bd e5a1 cbbd 035e efbd 080c 553d
00000130: f42d d1bd eb42 a9bd c4af f7bd 422d 40be
00000140: eed6 a93c aafc b63d af79 7ebe 470e babc
00000150: c3c8 dc3b 2c73 c6bc d7ef 6cbd 805e 6c3e
00000160: b544 533e e493 10be e184 183e a2a3 113e
00000170: b3a0 72bd a602 86bd 6e2d f6bd 4e17 25be
00000180: 4384 5b3d 5a36 0cbe ba70 4cbe 82b1 06be
00000190: b380 49be 76e2 b4bc 60fa e7bc 20ab d23d
000001a0: 02cd 2a3e 9cec c6bd 7a8a a6bd d6a0 2cbe
000001b0: f499 cfbd e9d0 c13d 772d 04bc 5ab7 0fbd
000001c0: 9c95 953b 7c61 9f3d 9f46 93bd afb8 2bbe
000001d0: 111e 19bc 866f fa3d 18ba 023d d252 3f3e
000001e0: deeb 603d 2b4e 833e ac5c 9d3e 609c aabc
000001f0: 96a2 1ebe 8eb6 9a3d 57f4 553e 4f2a 563e
00000200: 1583 9fbc 5ba2 94bd f23d 8bbd 1871 143e
00000210: 44c5 90bd 0fe8 97bd 5727 edbd 8163 ebbd
00000220: 7bf7 32bd e98c 3fbe d340 03bd dd69 2bbe
00000230: 1b22 21be 2cf2 b5bd a019 debd 57eb 1fbe
00000240: c1b6 f5bd 052d 20be 8f50 5fbe f20b 4cbe
00000250: 9680 1ebe 2ae4 8bbd e408 e1bd 262a 3ebe
00000260: 121e 69bc 01fd 14be be22 6ebe f1f7 63be
00000270: 3b3b cabd c194 183d 4941 00be 19e9 33be
00000280: c825 d6bd 8792 40be e574 2fbe b344 3f3c
00000290: 17ee e2bd 703e 3abe 2190 71bc 5c53 d73d
000002a0: b732 76bd 7c91 3cbe e285 f13d 09d7 cc3d
000002b0: 7f6f 4dbd 70ed 333e 5f73 8abc e41e 45be
000002c0: 5a72 05bd 3c04 c4bb b1e2 ad3c 61f8 4f3d
000002d0: 1ee4 2c3d 494f 0b3c 4015 a03e 5650 453e
000002e0: 9c08 1abe 3a51 dc3d e2f9 943d f33b ee3d
000002f0: 7c63 2ebc 9a12 293e 8b80 0a3e 733d d53d
00000300: b9f1 443d 422e 13bd b59f 813d 23cf 2c3d
00000310: 8b88 43bc eacc 93bd de5e bdbd 9886 afbd
00000320: 0c26 c03d 8c55 b8bd 30e1 fcbd 3619 11be
00000330: 6997 643b fdf3 163e 8444 853e 4dcb 353e
00000340: 6593 a23c 3330 1ebe db21 8abd d3a9 20bd
00000350: 92ad 86be 1a09 023d 9e16 2d3e b4a0 b83d
00000360: 62d6 503d e355 e7bd e274 603e 669e 45bd
00000370: 223a a93d 62c0 523d 1959 233d a4dd 3dbb
00000380: ce14 f1bb 130f b53b 0b1b 8abc 5836 a53d
00000390: d8bf 593d b5bc ef3c 9a8e d53d b9ae c63d
000003a0: aab6 7ebe 92ec e6bd 6f1b 143e e883 cb3c
000003b0: b2ab 13be 611d f93d 8fe6 043e 8a9e aabb
000003c0: 4a75 93bd cc7b 05be 21ad 8d3c b33b 203d
000003d0: 99e4 3fbe 10cc 973d aa23 123e b573 613c
000003e0: 3053 24be cd8a edbb f6de 93bd dc15 fdbd
000003f0: 9c29 2bbe 6a9f a9ba 0321 62ba bfcf afb9
-0.19149736 -0.037683148 -0.029200211 -0.07730733 -0.047964968 -0.1634256 -0.14343365 -0.16276807
-0.0066787307 -0.092962876 -0.054960955 0.082417145 -0.38871333 0.027670894 0.104526155 -0.17827539
0.06955194 -0.15237488 -0.011737445 -0.13564345 -0.19991668 -0.08542704 0.03387221 0.051526565
0.15491815 0.22214279 0.018845322 -0.1786607 -0.0858983 0.04500597 -0.042559054 -0.16437507
-0.042961117 -0.21104252 -0.25385126 -0.19560884 0.017593427 -0.0968851 -0.25148195 -0.19111389
0.116794 -0.12919004 -0.16538376 -0.0063214963 0.24073191 0.124835156 -0.005563549 -0.044687834
0.09505272 -0.005566607 0.11281762 -0.11546721 -0.118175 -0.19626506 -0.16943637 -0.10404022
0.17782936 -0.14644256 -0.034219585 -0.19997334 -0.05479615 -0.09015991 -0.13816255 -0.14643182
-0.005504347 -0.16408382 0.031356223 -0.09818561 -0.10730405 0.036755614 -0.18092592 -0.009739583
-0.040807366 -0.09942988 -0.11687853 0.052013427 -0.10213843 -0.08264717 -0.120940715 -0.18767264
0.02073237 0.089349106 -0.24851106 -0.022711886 0.0067378 -0.02422484 -0.057845917 0.23082924
0.20631678 -0.14118916 0.1489444 0.14222577 -0.059235286 -0.06543474 -0.12020384 -0.16122171
0.05359293 -0.13692608 -0.19964877 -0.13153651 -0.19678001 -0.022080641 -0.02831763 0.10286546
0.16679767 -0.097130984 -0.08131881 -0.16858229 -0.10136786 0.094636746 -0.00806748 -0.035086967
0.004564954 0.077822655 -0.07191204 -0.1676967 -0.009345547 0.12228303 0.031915754 0.18683937
0.05491244 0.25645575 0.30734766 -0.020826519 -0.15491709 0.07554351 0.2089399 0.20914577
-0.019471684 -0.07257529 -0.067989245 0.14496267 -0.070688754 -0.074173085 -0.11579769 -0.11493588
-0.043693047 -0.18706097 -0.032044243 -0.16739602 -0.15735666 -0.08884081 -0.10844731 -0.15617119
-0.11997748 -0.15642174 -0.21808074 -0.19926432 -0.15478739 -0.06830628 -0.10988024 -0.18570766
-0.014228361 -0.14549638 -0.2325544 -0.22262551 -0.098745786 0.037251238 -0.12524904 -0.17569388
-0.10456425 -0.18805896 -0.17134435 0.011674094 -0.11080568 -0.1818788 -0.014743836 0.105139464
-0.06010696 -0.18414873 0.11793114 0.10001952 -0.05015516 0.17571044 -0.016900716 -0.19250065
-0.032579757 -0.00598195 0.021226259 0.050773982 0.042209737 0.00850279 0.31266212 0.19268927
-0.15042347 0.1075768 0.07274224 0.11632528 -0.010643836 0.16511002 0.13525598 0.10412111
0.048082087 -0.035932787 0.0632929 0.04218973 -0.01193441 -0.07216819 -0.0924661 -0.085705936
0.09382257 -0.09000692 -0.123476386 -0.14169773 0.0034880287 0.14741512 0.26028836 0.17753334
0.019845674 -0.15448074 -0.06744739 -0.039224457 -0.263043 0.03174696 0.16903159 0.09015027
0.0509857 -0.112956785 0.21919587 -0.048246764 0.08263041 0.051453 0.039879892 -0.002897122
-0.0073572164 0.0055254786 -0.016858598 0.08067006 0.053161472 0.029264787 0.1042759 0.097012945
-0.24874368 -0.11275591 0.1446359 0.024843171 -0.14420965 0.12163807 0.12978576 -0.0052068876
-0.072001055 -0.13035506 0.017294468 0.039119434 -0.18739547 0.07411969 0.14271417 0.013760497
-0.16047359 -0.0072492124 -0.07220261 -0.12357685 -0.16715091 -0.0012941186 -0.0008626135 -0.00033533384
